best.pth (torch, 814234 bytes, 33 tensors)

mfcc_transform.MelSpectrogram.spectrogram.window f4 [400]
00000000: 0000 0000 0060 8138 005c 8139 0082 113a
00000010: 0052 813a 0007 ca3a 006d 113b 00e3 453b
00000020: 4031 813b c073 a33b c0b6 c93b 00f8 f33b
00000030: 601a 113c e034 2a3c 404a 453c 8058 623c
00000040: f0ae 803c 402c 913c 10a3 a23c 6012 b53c
00000050: f078 c83c a0d5 dc3c 0027 f23c f035 043d
00000060: 58d1 0f3d 10e5 1b3d 4070 283d 3872 353d
00000070: 08ea 423d f0d6 503d f837 5f3d 480c 6e3d
00000080: f052 7d3d 7885 863d a499 8e3d 80e5 963d
00000090: 8468 9f3d 2022 a83d cc11 b13d f836 ba3d
000000a0: 0c91 c33d 781f cd3d 9ce1 d63d dcd6 e03d
000000b0: 94fe ea3d 2458 f53d e4e2 ff3d 144f 053e
000000c0: a2c4 0a3e c051 103e 1af6 153e 52b1 1b3e
000000d0: 0c83 213e e86a 273e 8a68 2d3e 8e7b 333e
000000e0: 92a3 393e 34e0 3f3e 0e31 463e b895 4c3e
000000f0: d00d 533e ea98 593e 9c36 603e 7ce6 663e
00000100: 1ea8 6d3e 147b 743e ee5e 7b3e a029 813e
00000110: ccab 843e c235 883e 48c7 8b3e 2760 8f3e
00000120: 2200 933e 00a7 963e 8654 9a3e 7608 9e3e
00000130: 97c2 a13e ac82 a53e 7948 a93e c013 ad3e
00000140: 44e4 b03e c6b9 b43e 0a94 b83e d272 bc3e
00000150: dd55 c03e ee3c c43e c527 c83e 2316 cc3e
00000160: c807 d03e 76fc d33e ebf3 d73e e7ed db3e
00000170: 2bea df3e 76e8 e33e 87e8 e73e 1dea eb3e
00000180: f8ec ef3e d5f0 f33e 77f5 f73e 9cfa fb3e
00000190: 0000 003f b302 023f 4505 043f 9607 063f
000001a0: 8609 083f f30a 0a3f be0b 0c3f c70b 0e3f
000001b0: ec0a 103f 0e09 123f 0c06 143f c701 163f
000001c0: 1dfc 173f f0f4 193f 1fec 1b3f 8be1 1d3f
000001d0: 13d5 1f3f 99c6 213f fbb5 233f 1ea3 253f
000001e0: df8d 273f 2176 293f c45b 2b3f aa3e 2d3f
000001f0: b51e 2f3f c6fb 303f bfd5 323f 82ac 343f
00000200: f07f 363f ee4f 383f 5d1c 3a3f 21e5 3b3f
00000210: 1caa 3d3f 326b 3f3f 4628 413f 3ce1 423f
00000220: fa95 443f 6246 463f 5af2 473f c799 493f
00000230: 8e3c 4b3f 93da 4c3f be73 4e3f f507 503f
00000240: 1e97 513f 1e21 533f e0a5 543f 4825 563f
00000250: 3e9f 573f ad13 593f 7a82 5a3f 90eb 5b3f
00000260: d84e 5d3f 3cac 5e3f a403 603f fc54 613f
00000270: 2ea0 623f 25e5 633f cd23 653f 125c 663f
00000280: de8d 673f 22b9 683f c7dd 693f bcfb 6a3f
00000290: f012 6c3f 5023 6d3f cc2c 6e3f 522f 6f3f
000002a0: d22a 703f 3c1f 713f 810c 723f 92f2 723f
000002b0: 60d1 733f dea8 743f fc78 753f b041 763f
000002c0: eb02 773f a2bc 773f c86e 783f 5419 793f
000002d0: 39bc 793f 6e57 7a3f e8ea 7a3f 9e76 7b3f
000002e0: 89fa 7b3f 9e76 7c3f d8ea 7c3f 2c57 7d3f
000002f0: 97bb 7d3f 1018 7e3f 926c 7e3f 18b9 7e3f
00000300: 9efd 7e3f 1d3a 7f3f 936e 7f3f fc9a 7f3f
00000310: 57bf 7f3f a0db 7f3f d4ef 7f3f f5fb 7f3f
00000320: 0000 803f f5fb 7f3f d4ef 7f3f a0db 7f3f
00000330: 57bf 7f3f fc9a 7f3f 936e 7f3f 1c3a 7f3f
00000340: 9dfd 7e3f 18b9 7e3f 926c 7e3f 1018 7e3f
00000350: 96bb 7d3f 2c57 7d3f d7ea 7c3f 9e76 7c3f
00000360: 88fa 7b3f 9e76 7b3f e7ea 7a3f 6c57 7a3f
00000370: 38bc 793f 5219 793f c86e 783f a0bc 773f
00000380: ea02 773f ae41 763f fb78 753f dca8 743f
00000390: 5ed1 733f 90f2 723f 800c 723f 3a1f 713f
000003a0: d02a 703f 502f 6f3f ca2c 6e3f 5023 6d3f
000003b0: f012 6c3f bcfb 6a3f c6dd 693f 20b9 683f
000003c0: de8d 673f 105c 663f cc23 653f 24e5 633f
000003d0: 2da0 623f fb54 613f a303 603f 3aac 5e3f
000003e0: d74e 5d3f 8feb 5b3f 7882 5a3f aa13 593f
000003f0: 3c9f 573f 4525 563f dda5 543f 1c21 533f
0.0 6.169081e-05 0.00024673343 0.00055506825 0.0009866357 0.0015413463 0.0022190213 0.0030195117
0.0039426386 0.0049881637 0.0061558187 0.0074453354 0.008856386 0.010388583 0.012041628 0.013815045
0.015708417 0.017721295 0.019853145 0.022103488 0.02447173 0.026957333 0.029559612 0.032278
0.035111755 0.038060248 0.041122675 0.04429838 0.04758647 0.05098623 0.054496735 0.05811718
0.061846673 0.06568426 0.069628984 0.073679924 0.07783607 0.08209634 0.086459726 0.09092516
0.0954915 0.10015768 0.1049225 0.10978481 0.11474338 0.11979702 0.12494448 0.13018447
0.13551572 0.14093685 0.14644662 0.15204361 0.15772647 0.16349375 0.1693441 0.17527601
0.18128803 0.1873787 0.1935465 0.19978988 0.20610738 0.21249738 0.21895832 0.2254886
0.23208663 0.23875076 0.24547932 0.2522707 0.2591232 0.26603514 0.27300477 0.28003046
0.2871104 0.29424286 0.3014261 0.3086583 0.31593773 0.32326257 0.33063105 0.3380413
0.34549153 0.35297984 0.36050445 0.3680635 0.37565508 0.38327736 0.39092842 0.3986064
0.40630937 0.4140355 0.42178282 0.42954943 0.43733343 0.4451329 0.45294592 0.46077052
0.4686048 0.47644678 0.48429462 0.49214637 0.5 0.5078537 0.5157054 0.52355325
0.5313953 0.5392296 0.5470542 0.5548672 0.56266665 0.57045066 0.57821727 0.5859646
0.5936907 0.6013937 0.6090717 0.61672276 0.624345 0.6319366 0.63949555 0.6470202
0.65450853 0.66195875 0.669369 0.6767374 0.6840623 0.69134176 0.698574 0.70575726
0.7128897 0.71996963 0.7269953 0.733965 0.7408769 0.7477294 0.7545208 0.7612493
0.76791346 0.77451146 0.78104174 0.7875027 0.79389274 0.8002102 0.8064536 0.8126214
0.8187121 0.8247241 0.83065605 0.83650637 0.8422736 0.8479565 0.8535534 0.85906315
0.8644843 0.8698156 0.87505555 0.880203 0.88525665 0.8902152 0.8950775 0.8998424
0.9045085 0.9090749 0.9135403 0.91790366 0.92216396 0.9263201 0.93037105 0.9343158
0.9381534 0.94188285 0.9455033 0.9490138 0.95241356 0.9557017 0.9588773 0.9619398
0.9648883 0.96772206 0.9704404 0.9730427 0.9755283 0.9778966 0.9801469 0.9822787
0.9842916 0.98618495 0.98795843 0.9896114 0.99114364 0.99255466 0.99384415 0.9950118
0.9960574 0.9969805 0.997781 0.9984586 0.99901336 0.99944496 0.99975324 0.9999383
1.0 0.9999383 0.99975324 0.99944496 0.99901336 0.9984586 0.997781 0.9969804
0.99605733 0.9950118 0.99384415 0.99255466 0.9911436 0.9896114 0.9879584 0.98618495
0.98429155 0.9822787 0.9801468 0.97789645 0.97552824 0.9730426 0.9704404 0.96772194
0.9648882 0.9619397 0.95887727 0.9557016 0.95241344 0.9490137 0.94550323 0.9418827
0.93815327 0.9343157 0.9303709 0.9263201 0.92216396 0.91790366 0.91354024 0.9090748
0.9045085 0.89984226 0.89507747 0.89021516 0.8852566 0.88020295 0.8750555 0.86981547
0.86448425 0.8590631 0.8535533 0.8479563 0.8422735 0.8365062 0.8306559 0.82472396

mfcc_transform.MelSpectrogram.mel_scale.fb f4 [201, 80]
00000000: 0000 0080 0000 0000 0000 0000 0000 0000
00000010: 0000 0000 0000 0000 0000 0000 0000 0000
00000020: 0000 0000 0000 0000 0000 0000 0000 0000
00000030: 0000 0000 0000 0000 0000 0000 0000 0000
00000040: 0000 0000 0000 0000 0000 0000 0000 0000
00000050: 0000 0000 0000 0000 0000 0000 0000 0000
00000060: 0000 0000 0000 0000 0000 0000 0000 0000
00000070: 0000 0000 0000 0000 0000 0000 0000 0000
00000080: 0000 0000 0000 0000 0000 0000 0000 0000
00000090: 0000 0000 0000 0000 0000 0000 0000 0000
000000a0: 0000 0000 0000 0000 0000 0000 0000 0000
000000b0: 0000 0000 0000 0000 0000 0000 0000 0000
000000c0: 0000 0000 0000 0000 0000 0000 0000 0000
000000d0: 0000 0000 0000 0000 0000 0000 0000 0000
000000e0: 0000 0000 0000 0000 0000 0000 0000 0000
000000f0: 0000 0000 0000 0000 0000 0000 0000 0000
00000100: 0000 0000 0000 0000 0000 0000 0000 0000
00000110: 0000 0000 0000 0000 0000 0000 0000 0000
00000120: 0000 0000 0000 0000 0000 0000 0000 0000
00000130: 0000 0000 0000 0000 0000 0000 0000 0000
00000140: 51a4 5d3e ec96 483f 0000 0000 0000 0000
00000150: 0000 0000 0000 0000 0000 0000 0000 0000
00000160: 0000 0000 0000 0000 0000 0000 0000 0000
00000170: 0000 0000 0000 0000 0000 0000 0000 0000
00000180: 0000 0000 0000 0000 0000 0000 0000 0000
00000190: 0000 0000 0000 0000 0000 0000 0000 0000
000001a0: 0000 0000 0000 0000 0000 0000 0000 0000
000001b0: 0000 0000 0000 0000 0000 0000 0000 0000
000001c0: 0000 0000 0000 0000 0000 0000 0000 0000
000001d0: 0000 0000 0000 0000 0000 0000 0000 0000
000001e0: 0000 0000 0000 0000 0000 0000 0000 0000
000001f0: 0000 0000 0000 0000 0000 0000 0000 0000
00000200: 0000 0000 0000 0000 0000 0000 0000 0000
00000210: 0000 0000 0000 0000 0000 0000 0000 0000
00000220: 0000 0000 0000 0000 0000 0000 0000 0000
00000230: 0000 0000 0000 0000 0000 0000 0000 0000
00000240: 0000 0000 0000 0000 0000 0000 0000 0000
00000250: 0000 0000 0000 0000 0000 0000 0000 0000
00000260: 0000 0000 0000 0000 0000 0000 0000 0000
00000270: 0000 0000 0000 0000 0000 0000 0000 0000
00000280: 0000 0000 0000 0000 b68c 063f 95e6 f23e
00000290: 0000 0000 0000 0000 0000 0000 0000 0000
000002a0: 0000 0000 0000 0000 0000 0000 0000 0000
000002b0: 0000 0000 0000 0000 0000 0000 0000 0000
000002c0: 0000 0000 0000 0000 0000 0000 0000 0000
000002d0: 0000 0000 0000 0000 0000 0000 0000 0000
000002e0: 0000 0000 0000 0000 0000 0000 0000 0000
000002f0: 0000 0000 0000 0000 0000 0000 0000 0000
00000300: 0000 0000 0000 0000 0000 0000 0000 0000
00000310: 0000 0000 0000 0000 0000 0000 0000 0000
00000320: 0000 0000 0000 0000 0000 0000 0000 0000
00000330: 0000 0000 0000 0000 0000 0000 0000 0000
00000340: 0000 0000 0000 0000 0000 0000 0000 0000
00000350: 0000 0000 0000 0000 0000 0000 0000 0000
00000360: 0000 0000 0000 0000 0000 0000 0000 0000
00000370: 0000 0000 0000 0000 0000 0000 0000 0000
00000380: 0000 0000 0000 0000 0000 0000 0000 0000
00000390: 0000 0000 0000 0000 0000 0000 0000 0000
000003a0: 0000 0000 0000 0000 0000 0000 0000 0000
000003b0: 0000 0000 0000 0000 0000 0000 0000 0000
000003c0: 0000 0000 0000 0000 0000 0000 0000 0000
000003d0: 385a 6a3f 3f2e ad3d 0000 0000 0000 0000
000003e0: 0000 0000 0000 0000 0000 0000 0000 0000
000003f0: 0000 0000 0000 0000 0000 0000 0000 0000
-0.0 0.0 0.0 0.0 0.0 0.0 0.0 0.0
0.0 0.0 0.0 0.0 0.0 0.0 0.0 0.0
0.0 0.0 0.0 0.0 0.0 0.0 0.0 0.0
0.0 0.0 0.0 0.0 0.0 0.0 0.0 0.0
0.0 0.0 0.0 0.0 0.0 0.0 0.0 0.0
0.0 0.0 0.0 0.0 0.0 0.0 0.0 0.0
0.0 0.0 0.0 0.0 0.0 0.0 0.0 0.0
0.0 0.0 0.0 0.0 0.0 0.0 0.0 0.0
0.0 0.0 0.0 0.0 0.0 0.0 0.0 0.0
0.0 0.0 0.0 0.0 0.0 0.0 0.0 0.0
0.21644713 0.7835529 0.0 0.0 0.0 0.0 0.0 0.0
0.0 0.0 0.0 0.0 0.0 0.0 0.0 0.0
0.0 0.0 0.0 0.0 0.0 0.0 0.0 0.0
0.0 0.0 0.0 0.0 0.0 0.0 0.0 0.0
0.0 0.0 0.0 0.0 0.0 0.0 0.0 0.0
0.0 0.0 0.0 0.0 0.0 0.0 0.0 0.0
0.0 0.0 0.0 0.0 0.0 0.0 0.0 0.0
0.0 0.0 0.0 0.0 0.0 0.0 0.0 0.0
0.0 0.0 0.0 0.0 0.0 0.0 0.0 0.0
0.0 0.0 0.0 0.0 0.0 0.0 0.0 0.0
0.0 0.0 0.5255846 0.47441545 0.0 0.0 0.0 0.0
0.0 0.0 0.0 0.0 0.0 0.0 0.0 0.0
0.0 0.0 0.0 0.0 0.0 0.0 0.0 0.0
0.0 0.0 0.0 0.0 0.0 0.0 0.0 0.0
0.0 0.0 0.0 0.0 0.0 0.0 0.0 0.0
0.0 0.0 0.0 0.0 0.0 0.0 0.0 0.0
0.0 0.0 0.0 0.0 0.0 0.0 0.0 0.0
0.0 0.0 0.0 0.0 0.0 0.0 0.0 0.0
0.0 0.0 0.0 0.0 0.0 0.0 0.0 0.0
0.0 0.0 0.0 0.0 0.0 0.0 0.0 0.0
0.0 0.0 0.0 0.0 0.9154391 0.08456086 0.0 0.0
0.0 0.0 0.0 0.0 0.0 0.0 0.0 0.0

cnn.0.weight f4 [10, 1, 5, 1]
00000000: c4df c4be 9810 bbbe 15dd 9dbe bea8 0abf
00000010: 81b1 7cbe 265c abbe 6342 8f3b b904 a63e
00000020: 8b24 f83e 8af6 853e 3798 0c3f 1511 3fbd
00000030: 6ce6 82be be4a 02bf a6e5 bdbe 06ed 6bbe
00000040: 762d c33e d59f 043d 93af 05bf 77c3 ab3e
00000050: 3540 e5bd cfa7 b13e e33c ea3e a45c a0be
00000060: a16a 12bf ed2c 783e 7d21 693f 113b 80bd
00000070: 62c4 6e3d 2412 413e 0485 0d3f ef19 fa3b
00000080: 1a91 57be 79d1 80be 7830 363d faf0 e33c
00000090: 9c49 073e 0da7 05bc dc69 13bf e1b1 91be
000000a0: 16df 6abe 9b02 1dbe 1856 1f3f cc6f c03d
000000b0: 0c56 023f c044 693d f76c 27bd c3b0 003f
000000c0: f507 8abe e1e7 503e
-0.3845197 -0.36536098 -0.30832735 -0.5416373 -0.24677087 -0.3346874 0.0043719276 0.32425478
0.4846538 0.26164657 0.5491976 -0.04664715 -0.25566423 -0.508953 -0.3708927 -0.23039636
0.3812062 0.03237899 -0.5222103 0.33547565 -0.11193887 0.3469834 0.45749578 -0.3132068
-0.5719395 0.24235888 0.91066724 -0.06261266 0.058292754 0.18854576 0.5528109 0.007632486
-0.21051446 -0.25159815 0.044479817 0.027824868 0.13211673 -0.008157504 -0.57583404 -0.28456023
-0.22936663 -0.15333025 0.62240744 0.093963236 0.5091255 0.05695033 -0.0408754 0.50269717
-0.26959196 0.20400955

cnn.0.bias f4 [10]
00000000: 9d0a 703e 3f27 823e 0cb1 873e 3443 c8be
00000010: 61b2 8d3d bb17 e93d d05d 4ebe e49b 86be
00000020: 9441 0e3e 9ee2 313e
0.23441549 0.25420567 0.26502264 -0.39113772 0.06918789 0.11381479 -0.20152974 -0.2629081
0.13892204 0.17371604

cnn.1.weight f4 [10]
00000000: d820 753f 5880 783f ae9b 933f 10de 5e3f
00000010: 0afb 843f 0bff 5e3f 2143 8f3f aa54 953f
00000020: 9bf0 203f e393 3f3f
0.9575324 0.9707084 1.1531885 0.8705759 1.0389111 0.87107915 1.1192361 1.1666462
0.62867135 0.7483503

cnn.1.bias f4 [10]
00000000: 3c2e 033d 096f 16bf 5974 c7bd 5ff7 543d
00000010: cfa8 d5bd e939 4fbd 7da8 bf3e ce2e ccbd
00000020: add8 6dbe 677e 90bd
0.032026514 -0.58763176 -0.097389884 0.051993724 -0.10432588 -0.050592337 0.37433234 -0.09969865
-0.23227187 -0.07055359

cnn.1.running_mean f4 [10]
00000000: f932 1b41 e9ac f13d fb13 d3bf 718b 08c0
00000010: 0137 b5c0 addf 18c1 bd27 51c0 ca3b b1bf
00000020: 1555 10c0 faeb 8ec0
9.6999445 0.11800558 -1.6490473 -2.1335108 -5.6629643 -9.554608 -3.2680504 -1.3846371
-2.255193 -4.4663057

cnn.1.running_var f4 [10]
00000000: 11ab 9244 034c 4244 1912 a544 0f0a 3644
00000010: b074 9844 33d8 3945 91ee 9744 133e e842
00000020: 9032 ca44 06ea 5f44
1173.3458 777.1877 1320.5656 728.15717 1219.6465 2973.5125 1215.4552 116.12124
1617.5801 895.6566

cnn.3.weight f4 [1, 10, 5, 1]
00000000: 87e0 b73c 5831 a73d 2734 853d 8bc4 463e
00000010: 4e2e 683e 357c 9fbe c437 3abd 8d21 7a3d
00000020: f926 8abe da82 72bd 6fae 71be 03ea 9a3e
00000030: b713 393e 06c6 9ebe f4e3 a2bc a69c 143e
00000040: 3701 b33d c462 513e e10d 0dbe d085 403e
00000050: ad49 a83e bb4f 2bbe f10b 083e 65f8 a3bd
00000060: 4a03 75bc fc57 193e c208 593e 1094 54bd
00000070: a3e1 c43c 6b3e 9ebe 6253 a2be af21 823e
00000080: 000e 163e a2d8 11be 591e a3bd 0f0f 643e
00000090: 7e6e b93e bc64 33be 324c f3bc 48d7 7abd
000000a0: eb65 f0bd 6018 e83c 0a8e 50be 5839 96bd
000000b0: 0cee 3e3d 40ea f63d 08da 9e3d d1ce ce3c
000000c0: c21e 84bc 3613 1b3e
0.02244593 0.081637084 0.06504088 0.19410913 0.22673914 -0.3114945 -0.04546334 0.061067153
-0.2698286 -0.05920682 -0.23601697 0.30256662 0.18073927 -0.31010455 -0.019884087 0.14512882
0.08740466 0.20447832 -0.13774826 0.18801045 0.3286871 -0.16729634 0.13285805 -0.08006362
-0.014954397 0.1497497 0.21194747 -0.051899016 0.024033373 -0.30906996 -0.3170424 0.25416324
0.14653778 -0.14242795 -0.07964773 0.2227137 0.3621711 -0.17518896 -0.029699419 -0.061240464
-0.11738189 0.028331935 -0.20366684 -0.07335156 0.046613738 0.120563984 0.0775643 0.025245102
-0.016127948 0.15144047

rnn1.weight_ih_l0 f4 [256, 40]
00000000: 8134 cc3c 9813 f4bd bd47 99be 2e89 cabe
00000010: ae3f d4bd d075 9e3e 8d3b efbd 6b7d a3be
00000020: e0ce 4d3b 4de1 bb3d c274 c83e 223d d63e
00000030: 2002 86be ccbe 5dbe 7578 24be f3f8 1c3e
00000040: 6339 3d3e 3267 07bd 0ff0 bfbd a983 94bc
00000050: 2316 413e 51b6 21be 6cc9 443d 0a99 f13d
00000060: 5739 29be 0375 0f3c 1cdf 5c3e 213f 89be
00000070: 824f afbe 5e8e 9c3d 8ede ecbd 5502 c73d
00000080: 68ad 4c3e 6307 1f3e e4d9 cdbd 3aa0 6fbe
00000090: bd73 bc3d 834d 6f3c b2fd 003d f1e1 66be
000000a0: 3380 21be 7c01 8abe fe25 703d 89cb 8b3f
000000b0: 0cfb e63d 255b 3fbe bf3e 9e3d 274f 40bd
000000c0: d247 2dbd a377 85be 3be1 73be 915b 163e
000000d0: 564b ba3d 9479 ea3e 62c9 b73e 8839 483e
000000e0: c2a4 8ebe 0bfb d7be c7d7 a7bd 9525 30be
000000f0: 5ac0 03bd f892 bebe 172c c2bd 0cbf 033d
00000100: d6b8 71bd 9a2d 9bbd 35e4 1a3e 7a03 f43e
00000110: cea8 913e 3d49 c73c 0259 8f3d e869 fabc
00000120: 86ac 5ebd 9ad4 e6bd 1ca7 0e3e edb0 1f3e
00000130: f8c1 933e 83ce 633e c93f 4f3e f83f 02bd
00000140: d985 28bd f897 e93d 1d77 8dbd 3243 b4be
00000150: 95ed 52bc dd1f dd3e 1338 afbd ebdf ffbd
00000160: 48fc 213d 8c34 d13e bd32 7bbc 590f b8be
00000170: 2703 52be ab5e 89be d4f1 663c 1b6c 25be
00000180: ec5a fdbd 80c8 2cbe 5343 9cbd 74dc b53b
00000190: 1d0e 1c3e 85bc 263c f460 0ebe 3e5e 543d
000001a0: 5ec3 71bd d191 84bd c317 b7bd 51f8 d1bd
000001b0: e5f1 b2bd a29a 943e 1a9b 683e 7edf 7d3e
000001c0: c630 783e 25ef abbd 5d3d 32bd 7868 24be
000001d0: 6c8d 533d f1aa 173e f911 1b3e f2f4 a83e
000001e0: 652b 72ba 1964 b2bd 2da2 0dbd 10b1 433e
000001f0: b3dc 623e 86ba 8cbc e8e7 c73d e1c8 91bc
00000200: 2c38 23be eca5 7cbe 6321 70bd 964b 803d
00000210: 64f2 423e 09c2 363e c265 49bd 2725 d8ba
00000220: e94c 09be a39e c93d 5c73 b33e 5fe6 913e
00000230: 6080 633d 53ff 253e 83f9 833e ae62 c73c
00000240: f439 573d 1b74 823e a26a f63d f847 1abc
00000250: 2256 52bd da81 fb3d fdda 943e b1a2 6bbc
00000260: 96e6 1c3b 172c 43be f70e 923d f215 143e
00000270: e71e 59bd 076b 013e a8ec 513e 7269 6a3e
00000280: 71c2 38be a7ae 2b3e e2f0 ad3d 5672 e1bc
00000290: c8e4 94bd 17ce 283f 559d 133e 515c 4dbe
000002a0: c73b 9d3d fcb3 b4bc 6ad0 503e 75ae 9a3e
000002b0: b783 263e 9322 0ebe a266 ba3d a771 a53e
000002c0: aef8 9b3c 09e1 923e 67fc 36be 30e2 eb3d
000002d0: b06e a63d 75a8 0b3e 3b3a f9bb c1e2 2b3e
000002e0: d215 d33d 715c 963c 7e1d 183d 1482 9c3e
000002f0: 4b61 083e 6362 7c3d 2b95 a73e a24c c43d
00000300: ba03 b6bc b3f6 9d3e afa4 1fbd 3eda 433c
00000310: e1ae 13be e221 623e 9cae bdbc ffe5 6e3d
00000320: d98e e53d 4191 9c3c e161 74bd a6ca 623e
00000330: 48e2 013e 68dc 243e a626 853d fe96 a93d
00000340: 2888 7f3d e757 80be b28c 2cbe e069 52bd
00000350: 0e35 6e3e 1f76 efbc 0c03 ca3d 943f 60be
00000360: 5418 82bd 4b53 293d 1263 863e 55f2 ed3d
00000370: 127e ba3d 4f95 22bd faff a23c 91d4 19be
00000380: 80f0 353d 4e18 b03e bfc7 993e bdc5 3f3e
00000390: 6ded 5cbd 5c4e c13d f306 7cbc e003 083e
000003a0: cf55 253d ee3c 1e3e 040a acbb e5bc 603e
000003b0: 81de 65bd 109c 94bd e96c 75be 9b74 52bd
000003c0: a9b5 fdbd 5e50 29be f499 363b 1fb3 ea3c
000003d0: 3de0 6cbd ce00 e9be 591a cabe bb62 d13d
000003e0: 5251 9fbd bec0 ddbd 09ea 653d 3288 ebbd
000003f0: 5452 063e fc41 5c3e 1ccd 633e 4f91 9abe
0.02492738 -0.119178 -0.29937544 -0.39557785 -0.103637084 0.3094926 -0.1168128 -0.31931624
0.0031403825 0.09173832 0.3915158 0.41843516 -0.26173496 -0.21654814 -0.16061576 0.15329342
0.18478923 -0.0330574 -0.093719594 -0.018129187 0.188561 -0.15792204 0.048043653 0.11796768
-0.1652578 0.008755925 0.21569484 -0.26805976 -0.34240347 0.07644342 -0.115658864 0.09717242
0.19988024 0.15530162 -0.10051325 -0.23400965 0.09201763 0.014605883 0.031491943 -0.22547127
-0.1577156 -0.26954257 0.058629982 1.0921489 0.11278352 -0.18687113 0.077268116 -0.046950486
-0.04230482 -0.26067838 -0.23816387 0.14683367 0.090964004 0.45795882 0.3589583 0.19553196
-0.27860075 -0.42183718 -0.08195453 -0.17201836 -0.032165863 -0.37221503 -0.09481066 0.03216462
-0.059014164 -0.07577057 0.15126117 0.47658902 0.284491 0.024326915 0.06999399 -0.030568078
-0.05436375 -0.11271019 0.13930935 0.15594836 0.28858924 0.22246747 0.20239176 -0.031799287
-0.041143272 0.11405939 -0.06907485 -0.35207516 -0.012874027 0.43188372 -0.08555617 -0.12493881
0.039547235 0.40860403 -0.015331921 -0.3594921 -0.20509015 -0.26830038 0.014095742 -0.1615452
-0.123708576 -0.1687336 -0.076300286 0.0055499617 0.15239759 0.0101767825 -0.13904172 0.05184769
-0.059024207 -0.06473125 -0.08940079 -0.10252441 -0.08737544 0.29024225 0.22715417 0.24792287
0.24237356 -0.083952226 -0.04351555 -0.16055477 0.051648542 0.14811303 0.15143575 0.32999378
-0.00092380337 -0.08710498 -0.03457849 0.19110513 0.22154503 -0.017178785 0.097610295 -0.017795982
-0.15939397 -0.24672669 -0.05862559 0.06264417 0.19037777 0.17847456 -0.04916931 -0.0016490564
-0.13408245 0.09844711 0.3504895 0.28496072 0.05554235 0.1621068 0.257763 0.024339046
0.052545503 0.25479206 0.12032057 -0.009416573 -0.051351674 0.122806266 0.29073325 -0.01438205
0.002394115 -0.19059788 0.071317606 0.14461496 -0.053007986 0.12638484 0.20500433 0.22891787
-0.18042924 0.16765843 0.084932104 -0.02752034 -0.07270199 0.6593947 0.14415486 -0.20054747
0.07677417 -0.02205848 0.20392004 0.30211225 0.16261183 -0.13880377 0.09101607 0.32313272
0.019039478 0.28687313 -0.17869721 0.11517751 0.08126581 0.1363848 -0.0076058186 0.16785719
0.10306896 0.018354626 0.0371375 0.30567992 0.13318364 0.061617266 0.32730994 0.09584929
-0.022218574 0.3085228 -0.038975414 0.011953888 -0.1442218 0.22083238 -0.02315455 0.05832481
0.11208887 0.019112231 -0.059663657 0.22147617 0.12683976 0.16099703 0.06501512 0.082807526
0.062385708 -0.25067064 -0.16850546 -0.0513705 0.23262426 -0.02923113 0.098638624 -0.21899253
-0.063522965 0.0413392 0.2624746 0.11618487 0.09106077 -0.039693173 0.01989745 -0.15022494
0.04441881 0.34393543 0.30035207 0.18727775 -0.053937364 0.09438774 -0.015382516 0.13282728
0.040365037 0.1545293 -0.0052502174 0.21947058 -0.0561204 -0.07256329 -0.23967327 -0.051380735
-0.123881646 -0.16534564 0.002786276 0.028649865 -0.057831038 -0.45508426 -0.39473227 0.102239095
-0.077791825 -0.10827778 0.056131396 -0.115005866 0.13117343 0.21509546 0.22246212 -0.30188987

rnn1.weight_hh_l0 f4 [256, 64]
00000000: fac9 f3ba 0f0a c5be 72fe 4c3e ca69 96be
00000010: 2158 833d 1c21 343e 0a9c 853e 988f 4bbd
00000020: 47f3 b2bd 3e01 e33d e66c a0bd 1fe5 46bd
00000030: df84 3a3e 7dc6 84bd 1021 20bc 31c0 02be
00000040: a715 4cbc 8f23 8ebe d357 223c a3f0 bb3d
00000050: ae2d 263e a858 2c3e 0bed 18be b507 b73d
00000060: 4d53 1bbd 4e3f 46be e0a9 ca3d 08fb 17be
00000070: 81b5 773e f3a3 b03d 2223 3ebe 4397 a3be
00000080: 1f54 f8bd b149 49bd a35e 673e a6b1 0abd
00000090: 20e1 6b3d 1a18 21be 12e5 3cbe dacf 103e
000000a0: 5f4a d4bd f907 d13e 9f30 4c3d d24c 9b3d
000000b0: 7c44 1a3e c69c 58be 6a56 1abe 27d8 4ebe
000000c0: 99f3 7bbe ad05 d1be 3906 5a3e 97e3 94be
000000d0: 81ea f9bd 1a17 35bc e254 0c3d 144d 863e
000000e0: 9184 c23d 6088 143d a2cb 483e 3470 67be
000000f0: 640e 12be 7fa9 523d e332 c8bd 0c49 10be
00000100: 8059 cdbc 80e9 08bc a205 aabd 1db6 6cbe
00000110: 56ab 43be 641b 87bd 5cdc 7abd e20c 3e3d
00000120: 9990 33be 41df e33c 3f11 d9bc 5602 6a3e
00000130: eb90 f7bd 8120 8abe f489 c63d 6eb0 1cbe
00000140: 249f 82be 0fb9 963d 7a1b d33d 9c96 01bc
00000150: 75c8 56bd dcc4 343e 84c4 003e 6a41 efbd
00000160: 091c fbbd 038b 8c3e 0ea5 a23e fd05 873d
00000170: bdfc 8c3d 6307 233e d0d4 9ebe cc42 1c3e
00000180: 54fe b4bd 68ca d2bd d4c7 383e 43c8 dd3e
00000190: bd95 ec3d 1373 963b 1931 42bd 36f3 9bbd
000001a0: 6a15 013e 4502 553e 717b 45ba 6e0b bbbe
000001b0: c120 a23c dcbb 9c3d 804c b53d 459f 1d3d
000001c0: 232b 8a3d ac20 b8bd 53a5 f3bb 4ac1 4b3a
000001d0: 8951 47bd e9b5 e63d 0fa3 fdbb c060 93be
000001e0: b857 e3bd 8c54 65bd 32b8 b4bc c66c 21bd
000001f0: 28d4 45bc c674 87bd 4140 bbbc 5b40 64be
00000200: 1619 b33d 1f37 4abd a74d 30be 7699 78be
00000210: f3c8 453e 78fb c5bd 78f8 ab3e ff92 21be
00000220: 47e0 8fbe 6701 223e 95f6 11be fe75 02be
00000230: 5bfe 853d c77a 813e d1f2 b13b ef59 36be
00000240: d15f 5a3e 6bf8 613e bce8 5dbe 008c 19bd
00000250: 605a 8abe 0f9c 6dbd 5cda c73d d875 873e
00000260: 43d4 883e 9f6c acbd fe3d 7b3e 5376 5f3d
00000270: 6a95 933d 1704 a0be 7d14 a13e 215f 21be
00000280: b7f2 3dbe 5b31 81bd f0b2 b73e 3259 c5bd
00000290: 1f73 e43c ebf3 8dbe 1b4c 0a3d e4d6 5cbd
000002a0: 932a abbe bcda 4ebe eecf 66be 7f59 3d3e
000002b0: f297 163e 3153 6e3d 954f 14be e0d5 2ebe
000002c0: bf43 e73a ab42 52be b9d1 c03c b520 b2bd
000002d0: 4201 73bd 7a7b cb3d 5e83 5b3d 1fbc 623b
000002e0: 8a99 da3d 8a01 af3e 923e 983e b9c7 18be
000002f0: 7020 52be 74dc 3abe aa2e 37bd dfe2 1ebe
00000300: 0f10 0f3d 1034 cdbd 04de 2d3e cfab 6abe
00000310: 33da 1dbe e82c e9bd b7d5 4b3d 47ca 2cbe
00000320: 2dea d5bd 3ff8 fbbd 4494 94bc 6d77 3ebe
00000330: 822d c83c f6b4 e53d 6e60 8a3e 0d70 803e
00000340: 9948 5abe 119d 44be f6b7 89bd 18e9 1d3d
00000350: a532 713d 1cd4 26be 031a 0c3d 56a6 b3be
00000360: 7084 98bc 81ce dc3d 996f ea3d e182 7f3e
00000370: 14de 8e3d 0117 1bbe 609d 98bd 209d 943d
00000380: c16f ac3e 29b3 a03e 0c1a 4abe e828 dbbd
00000390: 8688 193e 7693 6ebe a1bb b5be 7b5b 303e
000003a0: f898 26bd 09a9 4d3e 4a9d 37be eff0 eabd
000003b0: 2a1c cdbd 1faa 1f3c 56ba 0dbe 753a 64bd
000003c0: 75f9 54be 4d02 6e3d 5ced 4dbe 6319 4f3c
000003d0: b399 9cbc 6965 81bc 5615 a7be 4063 c2bd
000003e0: 567a a4be ac30 63bc 0f33 95be 4436 51be
000003f0: 19a5 bbbc 8de5 0e3e 5b94 9f3d e4be bdbc
-0.0018599622 -0.38484237 0.20018938 -0.29377586 0.06413294 0.17590755 0.2609561 -0.04969749
-0.08737808 0.11084221 -0.07833271 -0.04855835 0.18214749 -0.06483171 -0.009773508 -0.12768628
-0.012456334 -0.27761504 0.009908634 0.09176757 0.16228363 0.16830695 -0.14934175 0.08937017
-0.03792124 -0.19360086 0.09895682 -0.14841855 0.24190332 0.08625021 -0.1856809 -0.3195134
-0.1212542 -0.049142543 0.22594695 -0.033860825 0.057587743 -0.1573185 -0.18446758 0.14141789
-0.10365748 0.40826395 0.049851056 0.07583012 0.15065187 -0.21153554 -0.15072027 -0.20199643
-0.24604644 -0.40824643 0.21291436 -0.29079887 -0.12202931 -0.011052871 0.034260638 0.2623068
0.09497941 0.03626287 0.1960893 -0.22601396 -0.14263302 0.051431175 -0.09775331 -0.14090365
-0.025067091 -0.008356452 -0.083018556 -0.23116346 -0.19108328 -0.06597021 -0.061245307 0.046399005
-0.17535628 0.027816417 -0.026497481 0.22852454 -0.12088188 -0.26977924 0.09694281 -0.15301678
-0.2551204 0.07359516 0.10307975 -0.007909443 -0.052437264 0.17653221 0.12574965 -0.116823986
-0.12261207 0.27449808 0.31766552 0.06592939 0.068841435 0.15920787 -0.31021738 0.15259856
-0.08837572 -0.10292512 0.18044978 0.4331685 0.11551998 0.0045913546 -0.047410104 -0.07614748
0.12605825 0.20801647 -0.0007533348 -0.36532158 0.019791009 0.07653019 0.08852482 0.03848197
0.06746509 -0.08990607 -0.0074354797 0.0007772638 -0.048661742 0.11265165 -0.0077403854 -0.28784752
-0.111007154 -0.055988833 -0.022060487 -0.039410375 -0.012074508 -0.0661407 -0.022857787 -0.22290175
0.08745019 -0.049368974 -0.17217122 -0.2427729 0.19314937 -0.096671045 0.33588004 -0.15778731
-0.28100798 0.15820847 -0.1425422 -0.12740323 0.06542655 0.25288984 0.0054305573 -0.17807744
0.21325614 0.2206742 -0.21670812 -0.03748703 -0.27022076 -0.058010157 0.097584456 0.26457095
0.26724443 -0.08419155 0.24535367 0.054556202 0.07206233 -0.3125312 0.31460944 -0.15758945
-0.1854962 -0.06308242 0.35878706 -0.09636153 0.027886925 -0.27725157 0.033763986 -0.053915873
-0.3343092 -0.20200628 -0.22540256 0.18491171 0.147064 0.058184806 -0.14483483 -0.17073774
0.0017644091 -0.20533244 0.023537504 -0.086976446 -0.05932737 0.09935661 0.05359208 0.0034596992
0.106738165 0.34180862 0.29735237 -0.14919938 -0.20520186 -0.18248159 -0.044722237 -0.15516232
0.034927424 -0.10019696 0.16979223 -0.22917102 -0.15415268 -0.11385518 0.04976436 -0.16874038
-0.10445056 -0.123032086 -0.018137105 -0.18600245 0.024435762 0.11216156 0.27026695 0.25085488
-0.21316756 -0.19200541 -0.06724541 0.038552374 0.05888619 -0.16291851 0.034204494 -0.35087842
-0.018617839 0.10781575 0.11447067 0.2495227 0.06975952 -0.15145494 -0.07451892 0.07256532
0.3367901 0.31386688 -0.19736499 -0.107011616 0.14993486 -0.2329844 -0.35494712 0.17222397
-0.040673226 0.20084013 -0.17931095 -0.11471736 -0.100151375 0.00974515 -0.13840613 -0.05571981
-0.20798285 0.058107663 -0.20110077 0.01264033 -0.019116258 -0.015795426 -0.32633466 -0.09491587
-0.32124585 -0.013866585 -0.29140517 -0.20430857 -0.022905873 0.13954754 0.077919684 -0.023162313

rnn1.bias_ih_l0 f4 [256]
00000000: e6b8 1cbe 35ef acbc 9077 383c 155b 463e
00000010: 3fcf 6e3e 371d 913c f860 c93c a883 c73c
00000020: 732e 743b f740 abbb 74c5 93bd 6424 50be
00000030: 467e 05be 54fb 9a3d fad8 253e 36c6 ccbd
00000040: ba60 80be 692f 63be 5dd9 08be 7b11 c43b
00000050: 3193 81bd 96ae 6dbe be7d 0cbe 8f18 563e
00000060: 5be2 12be 034b a73d 913f d5bd 2d20 953d
00000070: 4488 48be 26de 8abd e801 f0bd bf3a 55be
00000080: 80dd 983e 3a8d 08bb 27b6 35be 41e7 44bd
00000090: fe05 3e3d 33dc 84bd 2870 7c3b fbaa 24bd
000000a0: a7fb 2ebe 7456 08be fea6 6bbe e4ae 81be
000000b0: d552 2fbe 1736 b73e a9b5 b93d 3bb5 43bd
000000c0: fb72 91be 9cc4 43be ccd0 20be 8977 2fbe
000000d0: 46c7 f4bd 69a3 94be 3abd 943e 6538 853d
000000e0: ed5e 39be 6405 2c3e 1f20 8d3e e357 0cbe
000000f0: 200b 023e 285b d0b7 5a72 b13d 003b 6cbe
00000100: 787d 0a3e 647e a6bd 8beb 063e b269 48be
00000110: 97d6 79be 7643 063e 9f14 6e3e 8306 b93d
00000120: 4060 373d ed1b 77bc 0c20 1a3e c3ff 753e
00000130: 600c ec3d 10a5 213c 7bdd 363e a6ee 823d
00000140: a3bc b23c b4c3 7ebd 8926 e73c 34f2 633e
00000150: 79f8 703d e9a7 d8bc 0f63 08be 961e a53d
00000160: 4b06 18be cd58 e63d 3183 0d3e 4fd0 833d
00000170: 510d 3b3e 810f 10be 1fa9 6d3c 4d23 3ebe
00000180: b4f8 67bd d613 3fbb 63e0 61bc 69c1 18bc
00000190: 34b1 12be 87bc 133e 55ef 733e d806 0b3d
000001a0: a32b 8dbe 38b9 b6bc c63a a4bc 8f7f afbd
000001b0: 66bc e33d 81a1 a3bd ef52 ffbd aa13 873e
000001c0: 2333 10be ade9 14be 58da 2f3e 7665 2c3d
000001d0: 2c1d c73c 3e15 053e 2848 26be 12e9 3d3e
000001e0: 8aaf 263e d11b 69bd 4cc6 d33d 560f 4c3e
000001f0: 84f3 b93c 98a4 c5bb f5c3 103e d52e 813b
00000200: 5fc2 fd3d 9d50 123e 6e35 38be 8a65 653d
00000210: fec5 c93d f24e 17bd 1d9e 343e 1bb3 efbd
00000220: c0a4 91bd 63bc 413e f73d 6e3c 65b4 fd3d
00000230: 9bbb 513d 40ea 993d f8c2 d2bc 7439 8cbc
00000240: 5a61 d73b a40b 813c 1972 083e 57ca 35ba
00000250: c44e 14bd 5fdd 253c 16ad 483d 90b2 9ebd
00000260: 12c5 7f3d 0a05 2abe 2878 80bc eafc 0ebe
00000270: 6268 3bbe 434b d3bd 2ea0 bebd 8189 15bd
00000280: 6a88 dcbc 0c4b ba3d 7ee2 eebd cf76 473e
00000290: cf19 13be 9e58 973d 0776 ca3d 6086 f83a
000002a0: e365 33be f4a4 8bbd 4b3f c2bd b2f4 b7bd
000002b0: 2f3c 3aba 67bb b6bc 62bb d4bd 7183 6fbe
000002c0: 4f5b 8a3d bb5b 053d 54e8 3c3e 801e 893d
000002d0: 06fc 803d 4f35 9bbd 4c10 27bc b6e4 10be
000002e0: 006f 693d 34f7 f93d c31f 653e c162 ccbd
000002f0: e9ad e4bd 8cfc 283e 6e60 89bd 62ac 7fbc
00000300: f8f6 32be 65b2 c73d e1c3 1fbe f584 95be
00000310: 27a3 39bd f85b 4fbe 1b77 cf3d fb47 1bbe
00000320: 019e 39be c389 1abe 150a 54be 5adf 69bd
00000330: d33f 1ebd 31ed 4abd 5f65 d7bb af1c dc3d
00000340: 5da8 b73c 9b05 8dbd 35ec aa3c abec 35bd
00000350: 1aee 39be baa0 9e3d 4fe3 efbd 8d9e df3d
00000360: 92eb babc 7b7a 28bd 4a39 1cbc 1b7f c83c
00000370: 6c70 5bbd 5855 d5bd 003c 8dbc f85b 953d
00000380: f8c8 633e 5f0e 73be 5675 313e 5db6 103e
00000390: a482 bcbd f50d fdbd c145 523e a404 0ebe
000003a0: 576a 11be 0aef 22be 5433 3f3d 7392 263d
000003b0: 6225 983c 25e4 8a3d 1e43 cdbd 3e97 693d
000003c0: 2ba9 55bc 4e5b 82bc f745 db3c 9918 133e
000003d0: 82ab 70be 9dbe 8c3b b9b8 603e d6a8 f8bd
000003e0: f116 81bd 6574 1a3e 8e5e 90bd 0e62 e7bd
000003f0: 6b9f 113e fb33 31be 1647 803d 6a02 123c
-0.15304908 -0.021110157 0.011258975 0.19370683 0.23321246 0.017714126 0.024582371 0.02435477
0.0037259131 -0.0052262503 -0.072153956 -0.20326382 -0.1303645 0.07567468 0.16196051 -0.09998743
-0.25073797 -0.22186054 -0.13364168 0.005983529 -0.06326903 -0.2321113 -0.13719842 0.20907806
-0.1434416 0.08168604 -0.10412515 0.07281528 -0.19583231 -0.06780653 -0.117191136 -0.20823191
0.2985649 -0.002083613 -0.17745267 -0.048072103 0.046392433 -0.06487312 0.0038518999 -0.040202122
-0.17088185 -0.13314229 -0.23012921 -0.25328743 -0.17121442 0.35783455 0.09067852 -0.047780257
-0.28408036 -0.1911797 -0.1570465 -0.17135443 -0.11952071 -0.29030922 0.29050618 0.06504897
-0.18102618 0.16798931 0.2756357 -0.13705401 0.12699556 -2.483798e-05 0.08664389 -0.23069382
0.13524425 -0.08129576 0.1317579 -0.1957157 -0.24398266 0.13111672 0.23250054 0.09034445
0.044769526 -0.015082342 0.15051287 0.24023347 0.11525798 0.009866014 0.17857926 0.06393175
0.021818465 -0.062198356 0.028216617 0.22260362 0.058830712 -0.026447253 -0.13319038 0.080624744
-0.1484615 0.11247406 0.13819577 0.06436216 0.18266799 -0.14068414 0.014505654 -0.18568154
-0.056633666 -0.002915611 -0.013786408 -0.009323456 -0.1432541 0.14427386 0.23821767 0.033942074
-0.27572355 -0.022305116 -0.020047557 -0.08569252 0.111199185 -0.07989789 -0.1246699 0.2638219
-0.14082007 -0.14542265 0.17173135 0.04208895 0.024305902 0.12996385 -0.16238463 0.1854594
0.162779 -0.056911293 0.103405565 0.19927725 0.022699125 -0.006031584 0.14137252 0.0039423504
0.12390589 0.14288564 -0.17989132 0.05600504 0.09852217 -0.036940522 0.1763844 -0.117040835
-0.07111502 0.1891952 0.014541141 0.12387923 0.051204305 0.07515383 -0.025727734 -0.01711724
0.0065728845 0.015752621 0.13324775 -0.0006934753 -0.03620793 0.01012358 0.048993193 -0.07748902
0.0624438 -0.16603485 -0.015682295 -0.13963667 -0.18301538 -0.103170894 -0.093078956 -0.036508087
-0.026920516 0.09096345 -0.11664294 0.19478916 -0.14365314 0.07389949 0.09885793 0.0018960945
-0.17519335 -0.06818572 -0.094847284 -0.08982219 -0.0007104305 -0.022306157 -0.10387303 -0.23389985
0.06755697 0.032558184 0.18448001 0.066952705 0.0629807 -0.07578527 -0.010196757 -0.14149746
0.056990623 0.122053534 0.22375397 -0.09979773 -0.11165983 0.16502589 -0.06707846 -0.015605064
-0.17477024 0.09750823 -0.15602066 -0.29203 -0.04532161 -0.20249927 0.101301394 -0.15164177
-0.1812668 -0.15091614 -0.20706971 -0.05709777 -0.038635086 -0.04954261 -0.0065733637 0.107476585
0.022419149 -0.06885835 0.020864585 -0.044415157 -0.18157235 0.077455 -0.117132775 0.10918913
-0.022817407 -0.04113243 -0.009535143 0.024474671 -0.05357401 -0.10416669 -0.017240524 0.07292932
0.22244632 -0.23735951 0.17329916 0.14132066 -0.09204605 -0.12356178 0.20534422 -0.13868958
-0.14200722 -0.15911499 0.04667981 0.04066701 0.018572513 0.06781796 -0.10022567 0.057029
-0.013040821 -0.015912678 0.02676676 0.14364852 -0.23502925 0.004295184 0.21945466 -0.12141578
-0.06303204 0.15083463 -0.07049285 -0.11297999 0.1422097 -0.17304985 0.062635586 0.008911708

rnn1.bias_hh_l0 f4 [256]
00000000: 0fd7 e7bc 28f7 30bd e83e af3c 9384 3a3e
00000010: 1943 653d 12ac 8fbc 5b9e 81bd f997 193e
00000020: bac7 ecbd ec9c b0bd bf44 e6bd d9ee 46be
00000030: 9b2a 83bd e801 1c3d aec4 013e b4e3 74be
00000040: 8a44 bdbe 2345 4dbe b43b bdbe 701f d0bc
00000050: 7ee0 e7bd bd3c 2bbd 167e b9bc 2ecb c53d
00000060: b404 93bd 4e73 d5bd d558 98bd 2eaf 383e
00000070: c8ee a0bd 9ae9 c8bd 75e6 84bd f1f9 84bd
00000080: 5b6e 573e ae74 98bd 9c98 0bbe 4b29 863a
00000090: 7b7d 3b3d abf3 84be 4ab2 b43d d139 19bc
000000a0: 4a1e 4ebe 62c1 89bd 8a5b 27be fa2c 9cbe
000000b0: d2f2 63be 28a4 b13e 0fec 143e f79f 613d
000000c0: d2ad 04be 08c0 86be 79ce b8bd cb35 6bbe
000000d0: 3f93 49be a8d4 15be 2524 bb3e b536 e43d
000000e0: 3afa 91bd 7008 593e b252 833e baff 0fbe
000000f0: 9232 0d3e ab55 ddbd 803d a93d c252 5fbe
00000100: c68d f23d e9b0 36bd 6ea7 913d 630e 4dbe
00000110: b7e7 77be ff1b fb3d dcfc 403e 2331 bcbd
00000120: 04d4 13bc 6b5a 3d3e 15e1 853d efce 843e
00000130: eb2d 093e fd84 f6bd a21e 9c3b 2016 0c3d
00000140: 92d5 37be 11c7 20be 7f13 24be 2fa1 d73d
00000150: be54 903d 2875 d53d 4b9d 58bc 9140 7f3d
00000160: 9ca1 b3bc 523f 4b3d 48be ba3d 3829 dd3d
00000170: 9edc 4b3e f5b4 a1bd 4359 2ebe e23f db3b
00000180: ffda 6dbd 403b b2bc b6bc a0bc 3fc2 653e
00000190: 570a 33be 2c1c 6f3e 8bd0 2a3e ad8a 6abd
000001a0: 54fa 98be 2fd8 7f3d 8b6d 63bd 329e c53c
000001b0: 6b48 0c3e 9530 1cbd d2d7 e4bb 6c4c 293e
000001c0: 1aba 3cbe 83cd 403c 1883 f83d 3661 033e
000001d0: a9e3 e13d 072b 87bd 47ce 41be b31e ce3d
000001e0: 8c7c 603e 472a c3bd f9f0 6fbb 556c b33d
000001f0: 2fd8 403e c54f 1cbe 45c5 003d 2d2e d13c
00000200: 3d1c dd3b 559c 583e 988b 00be 9d06 643e
00000210: e8ea 143a 398d a8bc ee0c c43d de40 dc3c
00000220: e32f aebc 7a36 023d 8002 ae3c 8cac b0bd
00000230: d8e4 ba3d 3ad2 11be 0d4c 25bd 4133 283e
00000240: 9599 8cbc f008 563d 62ae 47bd c2d0 cebc
00000250: 6dfa 0b3d 36f7 973d 5c68 263e 5d36 d4bd
00000260: 561a 7a3d 193b 56be 72df 3a3d a5c0 e1bd
00000270: 4166 b2bd c271 49bd 41dc 8c3d 70d0 d63c
00000280: ae56 003e de6b 06bd ece0 14bd 1eca 353e
00000290: ea48 28be aade 233d 7f30 02be 140b f4bd
000002a0: a207 fcbd f604 4e3d 8401 0abe f5fc 193d
000002b0: b524 08be 595b a93d f493 f0bd 79e0 59bd
000002c0: 5b92 6fbd 4db2 9cbd fcdf bfbc 098e 933d
000002d0: 22c8 243d 5d11 37be 740b 73bd 4778 443d
000002e0: b97f f73d e66d 35bc fe3d ca3d cc55 1abd
000002f0: f0a8 56be 7aca 10bd defd bc3d 8028 173d
00000300: 97bf 52be 0bba 19bd fbaf ebbd aaf7 16be
00000310: a96b a93d fc5d 5ebc d0c9 b1bd 6d6a 1abe
00000320: 5d7c 9bbe 4b77 18be cf9d a3bd 9985 93bd
00000330: 2044 173e 56cc 263d 93bd 7ebe b65e 353e
00000340: 0ff0 543d 8514 61be 2061 93bd 2e63 2a3e
00000350: 00ac 22be 756e 0c3e af0f a7bd bea4 043e
00000360: 4462 4abe 49ac 433c 5789 e73d 13be f23d
00000370: a514 45bd 2285 05be 367b 1c3d 7730 763d
00000380: 8af7 8f3e 7a2d 38be fd03 6e3e e699 573d
00000390: 20d2 d4bd 8faa 0abe 6a7a 4d3e 8532 abbd
000003a0: 24b0 87bd 3f2f 01be bf7c bf3d 0cd2 893d
000003b0: abbd 003d c72f 403d f770 ddbd 93e7 2abd
000003c0: 4365 9c3c 7565 6ebe f826 753d 2174 e43d
000003d0: d7a7 97bd b6a8 5b3d 29b1 d43d f3cb b3bd
000003e0: f424 babc 8de0 8b3e 9af4 33be 6db4 1ebc
000003f0: b16f 24bd 7a22 debd 3780 963d d705 9d3d
-0.02830079 -0.043204457 0.0213923 0.18214636 0.055972192 -0.017538104 -0.06329032 0.14999379
-0.11561532 -0.086236805 -0.11243581 -0.1942705 -0.06404611 0.038087755 0.12672684 -0.23914987
-0.36966354 -0.20045905 -0.36959612 -0.025405616 -0.11322115 -0.04180597 -0.02264313 0.09657894
-0.071786314 -0.10422383 -0.07438818 0.18035576 -0.07858044 -0.09810181 -0.06489269 -0.06492985
0.21038191 -0.0744413 -0.13632435 0.0010235695 0.045773964 -0.25967154 0.088230684 -0.009352163
-0.20128742 -0.06726338 -0.16343513 -0.30503064 -0.22260597 0.34695554 0.14543174 0.055084195
-0.12956932 -0.26318383 -0.090237565 -0.22969739 -0.19685076 -0.14631903 0.36551014 0.11143247
-0.07127805 0.21194625 0.2564903 -0.14062396 0.13788822 -0.108073555 0.08263683 -0.21808913
0.118434474 -0.04460231 0.07112013 -0.2002502 -0.24209486 0.12261199 0.18846458 -0.091890596
-0.009022716 0.18491523 0.065370716 0.25939128 0.13396423 -0.12037084 0.004764394 0.034200788
-0.17952564 -0.15700938 -0.16023062 0.1052879 0.07047413 0.104227364 -0.013221095 0.062317435
-0.021927647 0.049620934 0.091183245 0.107988775 0.19908378 -0.07895843 -0.17026238 0.006690965
-0.05807018 -0.021756768 -0.019621234 0.2243738 -0.17484413 0.2335059 0.16681115 -0.057261158
-0.29878485 0.062462028 -0.05552439 0.024123285 0.136995 -0.03813227 -0.0069837356 0.16533059
-0.18430367 0.011767748 0.12134379 0.12830052 0.11029751 -0.06600004 -0.18926345 0.10064449
0.21922511 -0.09529548 -0.0036612137 0.08760897 0.18832467 -0.15264805 0.03143813 0.025534714
0.006747751 0.21153386 -0.12553251 0.22268148 0.0005680756 -0.020575153 0.09572779 0.0268864
-0.021263069 0.031790234 0.021241426 -0.08626661 0.0912568 -0.14240351 -0.04035573 0.16425802
-0.017163077 0.052254617 -0.04875029 -0.025246028 0.03417437 0.074201986 0.16250747 -0.103619315
0.061060272 -0.20920981 0.04562325 -0.11023072 -0.0871091 -0.049180754 0.068779476 0.026222438
0.12533066 -0.032817714 -0.036347315 0.17752883 -0.16434065 0.04000727 -0.12713812 -0.119161755
-0.12306143 0.0502977 -0.1347714 0.037594754 -0.13295253 0.08269376 -0.1174697 -0.05319259
-0.058489185 -0.07651196 -0.023422234 0.072048254 0.040229924 -0.17877717 -0.059337094 0.047966268
0.12084908 -0.011073565 0.09875105 -0.03767948 -0.20962882 -0.035349347 0.09228109 0.03690386
-0.20580898 -0.03753094 -0.11508175 -0.14742914 0.08272488 -0.013572212 -0.08681071 -0.1507966
-0.3036832 -0.14889257 -0.07989084 -0.07203216 0.14772081 0.040722214 -0.24877004 0.1771191
0.05198675 -0.21980484 -0.071962595 0.16639397 -0.15885925 0.13714011 -0.08157288 0.12953469
-0.19764048 0.011942931 0.11305492 0.1185266 -0.04811539 -0.13039067 0.03820344 0.060104813
0.28118545 -0.17986098 0.23243709 0.052637003 -0.10391641 -0.13541625 0.20066229 -0.08359245
-0.06625393 -0.12615679 0.09349965 0.067295164 0.03143088 0.046920564 -0.10812562 -0.041724753
0.019091254 -0.2328089 0.059851617 0.11154962 -0.0740506 0.053627692 0.10385353 -0.087791346
-0.022722699 0.27319756 -0.17573777 -0.009686572 -0.04014558 -0.1084642 0.07348674 0.076671295

rnn1.weight_ih_l0_reverse f4 [256, 40]
00000000: a281 8cbc f35d 233d 2065 21be 55ad 1fbd
00000010: 643d ba3d 4fa0 77be 6c87 5fbe cb32 29be
00000020: 13fa d1bd 1c2e 7cbb f875 d93d 216a 74be
00000030: 1e90 16be 2888 30be b4b4 abbd e8de c43c
00000040: 030c a7bd 3bba 9abe 67d5 09bd 3951 14be
00000050: c85f 37be bad1 12be c51b c03d b08d 5a3d
00000060: df27 afbd 53e8 a9bd da13 553e 1ba3 aa3d
00000070: c4ac 763d c4af 163d b3ae 7dbd 9703 f9bd
00000080: f10e 883d 5cd2 7f3d d820 773d dbd1 0fbe
00000090: a930 07b9 fe7c 9c3d 761c 72be 670e e6bd
000000a0: adf1 3f3c 6715 b73b 650a 3ebd a5b3 8cbd
000000b0: d9ee c1bd a114 0bbe 34ad b1bd cbef a6bd
000000c0: 2049 24bd b38d 23bd b0cf b9be 9fab 67be
000000d0: fe98 1ebe 3326 9ebb 8d9b b53d ae3d d8bd
000000e0: f729 94be f45e abbe ba60 a2be 2058 3fbe
000000f0: a693 e8bd b49c cf3d 2100 3f3e 1dd7 71be
00000100: 2ac1 e73a 5148 90bd 1e44 21be c4ab 1ebe
00000110: d338 253e 5c44 b33c deea 153e cc71 32bc
00000120: bb2d b2be 33e7 24bd 4753 cdbe 9a86 d3bd
00000130: 3003 75be d11f 18be a48b 07be 5e99 f2bd
00000140: e7a7 e63b 46ff 34bd 3609 b3bd 3f80 b5bd
00000150: b379 043e 5225 3fbe 6b33 e8be 6370 14bf
00000160: 3396 bbbe 68f9 46be 04ba a93d 9e2b 173d
00000170: a75b 12bf ccc7 ddbe 7947 a3be 919c 513b
00000180: 04aa 4d3d 1fee af3d acaf a1bc 5be4 ffbd
00000190: 0a5c abbe 5983 86bd 5280 d63e c491 1a3e
000001a0: 7eee b3bd 71f8 f8bd 8dc3 a43d fc05 1e3e
000001b0: 408e 193e edec 353e d8dc 663e 42b1 52bd
000001c0: 3587 00be a206 2b3d 922d 09be 5823 40be
000001d0: d7fd e2bd 9562 4a3e 3549 553e 30b9 23be
000001e0: afe5 bd3c cf55 34bd 7c2f 21be 0cca e93a
000001f0: 492b 07bc cbbd 0e3e 9572 98bd 7fe5 34be
00000200: cef8 33be f466 15bd 11ef 8b3e c9b9 013d
00000210: d556 1abe b444 7fbd 4991 393d b85e d7be
00000220: 55e3 a4be 1559 13be 7012 81be a800 ddbe
00000230: f544 69be dc28 743c 1c77 873c e87f 043d
00000240: 58d6 4d3e effe 75be 7c64 6f3d b8ee 48be
00000250: fc28 1c3d 8a3a c03d 5f33 6a3e a77b 533d
00000260: 8fb7 27be 8753 e8bd 8639 5bbe e866 cf3d
00000270: d61d 7d3e 76ea 2a3e 0da7 b8bd f180 cdbd
00000280: cb1f 9a3d 4ac7 333e a93d 80be 4960 3fbd
00000290: 2941 c23d 5e38 603e 08e6 4e3c 8bd9 2fbd
000002a0: 7259 2c3e f3a0 a33d d28e 9d3d ce77 cc3d
000002b0: cc84 623d 3f3d 163e 2bc2 9f3e 167d 403e
000002c0: 937b 0e3e 6ddb 443e 8e99 df3d 3ac0 773e
000002d0: 4a82 033e da7f 1b3d 9861 efbb 1000 69b9
000002e0: 23c3 533e 867e 583e c6e0 d03d af0a 36bd
000002f0: bc2a 4f3c e360 80bd 6576 3d3e 9821 613e
00000300: 94f2 873c bbd2 bf3d 9f71 a2ba 0bf4 b13d
00000310: e4d9 4a3e a1f4 b13d e7f1 ab3c 503f 473e
00000320: 1442 9ebd 1424 4cbe 207d f6bd 9b8c c2be
00000330: 0594 c2bd ceb5 d5bd 11d8 cabe b98a 07be
00000340: 7554 6ebe 407c 39be 3012 50bd b543 7bbe
00000350: 65f1 1fbe 1848 79be d53b a1be 9348 6bbe
00000360: 9311 12be 213a 2d3c f68a 04be 4ff6 c43c
00000370: e9a7 953e 7902 8ebe 2dad 27bd 580f 223d
00000380: 99d3 dabc 9e03 c43d 6ede fd3d 785f 4d3e
00000390: 0e6c 923e 2aff 5b3d 355c 893e f902 a33c
000003a0: 70d3 e33d 1b0c 84be 68d0 eebd 6011 c7bd
000003b0: a614 6fbc a65d b7bd c6c3 e7bd e218 0dbe
000003c0: c1c8 15be 263a 843e 0187 483e 9a55 7ebe
000003d0: 62ed 2bbe 3e7c 3c3e d3f3 50be 5efc c8be
000003e0: 2361 9cbe fcdd f03d 2c17 d73d aba8 34be
000003f0: b656 3ebe fa12 0c3d b996 ff3d e16f c13c
-0.017151657 0.03988452 -0.15761232 -0.03898366 0.090937406 -0.24182247 -0.21829003 -0.16523282
-0.10252776 -0.0038479632 0.10618204 -0.2386861 -0.14703414 -0.1723944 -0.08384076 0.024032071
-0.08156588 -0.30220208 -0.033650782 -0.14484109 -0.17907631 -0.14337817 0.093802966 0.05335778
-0.08552527 -0.082962655 0.20808354 0.08331891 0.060223356 0.036788717 -0.061934184 -0.12158888
0.06643475 0.062456474 0.060334057 -0.14044897 -0.0001289273 0.07641028 -0.2364367 -0.11233216
0.011715335 0.005587268 -0.04639663 -0.06870202 -0.09469385 -0.13582088 -0.08675614 -0.08151206
-0.0401088 -0.039930057 -0.36291265 -0.22624062 -0.1548805 -0.004826331 0.088675596 -0.105586395
-0.28938267 -0.3347088 -0.31714422 -0.18685961 -0.11356287 0.101373106 0.18652393 -0.23617215
0.0017681469 -0.07045043 -0.15748641 -0.15495211 0.16134958 0.021883182 0.14640376 -0.010891389
-0.34800515 -0.04025955 -0.40102598 -0.103284076 -0.23926997 -0.14855887 -0.13236862 -0.11845659
0.0070390585 -0.04418876 -0.08741991 -0.088623516 0.1293705 -0.1866658 -0.4535173 -0.5798399
-0.3663803 -0.19431078 0.08287433 0.03690683 -0.571711 -0.43316495 -0.31890467 0.003198419
0.050210968 0.0859034 -0.019737087 -0.12494727 -0.33468658 -0.06568021 0.41894776 0.15094668
-0.08785723 -0.121567614 0.08045111 0.1543197 0.1499567 0.17766161 0.22545183 -0.051438577
-0.12551577 0.041754372 -0.1339629 -0.18763483 -0.11083572 0.19764169 0.20828708 -0.15988612
0.02318081 -0.044027146 -0.1574077 0.0017836704 -0.008250066 0.13939588 -0.0744373 -0.17665671
-0.1757538 -0.036475137 0.2733083 0.03167132 -0.15072186 -0.06232138 0.04530457 -0.42064452
-0.3220469 -0.14389451 -0.2520938 -0.43164563 -0.22780211 0.01490232 0.016536288 0.032348543
0.20101297 -0.2402303 0.05844544 -0.19622314 0.038125023 0.093861654 0.22871159 0.051631596
-0.16378616 -0.113440566 -0.21408662 0.1012705 0.24718413 0.16691002 -0.090162374 -0.10034359
0.07525595 0.17556491 -0.25047043 -0.046722684 0.094850846 0.21896502 0.012628086 -0.042932075
0.16830996 0.07989683 0.076932564 0.099837884 0.055302426 0.14671801 0.31202826 0.18797716
0.13914327 0.1922433 0.1091796 0.24194422 0.1284267 0.037963726 -0.0073053353 -0.00022220635
0.20679908 0.21142015 0.10199122 -0.044443782 0.012644466 -0.0626848 0.18502195 0.21985471
0.016595162 0.093663655 -0.0012393481 0.086891256 0.19809681 0.086892374 0.020989371 0.19457746
-0.07727447 -0.19935638 -0.120355844 -0.37997898 -0.09500889 -0.10435067 -0.3961797 -0.13236512
-0.23274405 -0.18113804 -0.050798595 -0.24537547 -0.15619428 -0.24343908 -0.3149096 -0.22976904
-0.14264517 0.010572941 -0.12943634 0.02404323 0.29229668 -0.2773626 -0.040936638 0.039565414
-0.026712226 0.095710024 0.12395941 0.2005595 0.28598064 0.05371014 0.2682816 0.019898878
0.11124313 -0.25790486 -0.11660844 -0.09720111 -0.014592325 -0.08953409 -0.11316638 -0.13779023
-0.14627363 0.25825614 0.1958275 -0.24837342 -0.16789773 0.1840677 -0.20405512 -0.3925504
-0.3054286 0.1176109 0.105024666 -0.17642467 -0.18587765 0.034197785 0.1247992 0.023612918
